Prediction and Control with Function Approximation/Week 2/Notebook: Semi-gradient TD with a Neural Network/asserts/agent_init_weights_2.npz (npz, 402494 bytes, 4 tensors)

W0 f8 [500, 100]
000000 29 02 2d df 75 70 82 bf ec 6c dc d9 72 a7 c0 3f
       -0.009003563760075899 0.13011012685533474
000010 f3 53 ba 33 53 58 92 3f 35 dd 1e 9f e2 87 b5 3f
       0.01791505816671086 0.0841046942212998
000020 e7 a1 b7 8e 16 07 84 bf 7c 01 36 fb f8 e1 71 bf
       -0.009779144506823335 -0.004365894873786021
000030 61 5c d3 52 3c 74 a8 3f db 07 69 67 61 bc aa 3f
       0.04776180754714044 0.05221847903568718
000040 fc d8 ae 6c 7f 4a 7d bf d8 2d 24 a8 2d 2b c3 bf
       -0.007151124717827747 -0.1497551985743104
000050 26 0a 6b 40 2c a3 85 bf c2 4f 10 0e c2 31 a6 3f
       -0.01056513377750885 0.043348373619806604
000060 47 3b 42 2a e6 59 58 3f 75 d9 01 13 90 8b 9d 3f
       0.0014862773614685175 0.02885270229349986
000070 d3 ca c0 95 9e 84 91 3f 9b 93 3f 9f e8 3b b7 bf
       0.017107465639308494 -0.0907578839101703
000080 1d 0b fb d6 4e 96 ac 3f aa 30 d6 19 b7 c8 a2 bf
       0.05583425878787394 -0.03668758573903237
000090 c9 45 63 25 d6 3d a0 bf d1 d6 b3 88 d6 22 a3 3f
       -0.031721775115908075 0.0373751680253186
0000a0 bc 9c 5d 0b e5 b0 a7 bf 4a 7b 10 73 c2 f3 90 3f
       -0.04627147449246524 0.016554868958446968
0000b0 69 8f 9c 84 4e b6 ab bf 12 59 fb 6b 26 4a 88 bf
       -0.054125264823851556 -0.011860180063575618
0000c0 5b 5e 39 c3 31 30 98 bf 29 a1 81 92 38 eb 9d bf
       -0.02362134698918648 -0.029217609350241567
0000d0 58 22 af bd 46 70 aa bf fc 25 13 1a f4 60 67 bf
       -0.05163785043220476 -0.00285384822982304
0000e0 84 58 c5 fd 2f 6e 7f 3f b4 78 4f ed e3 fb ad 3f
       0.007673442331301076 0.05856239578109648
0000f0 c8 3b 52 26 ce 94 a2 bf a9 ae 1c 2d 4e 4e 6b 3f
       -0.03629154413021457 0.0033332373503947754
000100 df 9a f7 4f 7f de c1 3f b1 8b c6 25 30 60 99 3f
       0.13960257916115545 0.024780990892064817
000110 2b 05 6f 92 1e 43 9f 3f fb ff d9 b7 6f 10 9c 3f
       0.030529477775194252 0.027406449886711908
000120 2c 34 e8 2b 0d 98 bb bf 97 41 35 2c b8 97 8f bf
       -0.10778887102078788 -0.015426100587007592
000130 52 2f b3 0e 63 52 c1 bf d7 e8 aa e6 1f e4 ab 3f
       -0.13532674997110888 0.054474827678363695
000140 41 01 8d 17 71 87 bb 3f af 4f 49 83 7a 1f a1 bf
       0.10753542733164513 -0.03344328739754531
000150 78 87 82 be 5e 8d bc 3f 64 f6 ea 76 e8 28 b2 bf
       0.11153213645095927 -0.07093670752780096
000160 89 05 ba a3 66 4c b3 bf 0d b4 f4 53 fe e5 a1 3f
       -0.07538453576309768 0.034957835911292624
000170 8f 57 d6 28 41 6c aa bf 1d 15 16 5b 10 15 a0 bf
       -0.05160716651441454 -0.031410704726150686
000180 56 fe 33 e6 40 96 b1 3f 48 10 01 48 c9 8f af bf
       0.06869893665497648 -0.06164387706715552
000190 7c 98 32 8e a7 45 92 bf b5 08 6b 85 61 5d 7e bf
       -0.017843835882239464 -0.007413273756073637
0001a0 36 25 60 41 1a 84 98 3f 2b 37 f1 7f b0 b5 a7 3f
       0.023941431274612422 0.046308055513334466
0001b0 85 fb 92 97 99 d4 7a bf 28 6f 38 6c 78 68 b3 bf
       -0.006550407380187977 -0.07581284181690917
0001c0 8b 80 4e e6 74 5a b0 3f df bb 97 dc fb 46 c7 3f
       0.06388025877686425 0.18185375472191276
0001d0 d8 9c 04 bf 29 90 aa 3f 78 53 87 24 50 27 a2 3f
       0.051881126945141964 0.035456184825000514
0001e0 06 ed cf 2b f0 53 98 bf 7c 71 02 a9 bf 53 90 bf
       -0.023757698701939688 -0.015944475832485136
0001f0 22 fd 92 05 c1 7f b6 bf 9c 18 b9 2e 83 fd a3 3f
       -0.0878868712052179 0.03904352135991582
000200 56 2c 42 0b 8c 96 81 bf 7a 2d 1c bd 2f da b4 3f
       -0.0085879269538706 0.08145426146454851
000210 4d a4 4c 7b 32 ca b0 bf b9 cd c4 6b f7 16 b6 3f
       -0.06558528433073825 0.08628794079850523
000220 a1 62 f4 7d e8 12 94 bf 6d d2 c5 91 fd c9 a3 bf
       -0.019603378951702614 -0.03865044025852602
000230 18 6e 61 d6 9f 49 9f bf 6c 1d 80 11 4e b8 a3 bf
       -0.03055429216361291 -0.038515510212216636
000240 e2 8a fb e7 ed e7 c0 bf 92 88 31 14 cd b3 a4 3f
       -0.13207792117380907 0.04043427344801488
000250 29 32 d7 8b c3 12 a9 3f b8 01 46 ed 7d b3 b4 3f
       0.04897128183401762 0.0808638290673177
000260 fa 16 f5 a1 8a d6 a6 3f a7 c4 f8 9b de 3d a5 3f
       0.04460557200449773 0.04148765233947787
000270 bf 95 6c 2b 28 2d bb bf 05 93 1c 0e b8 b7 87 3f
       -0.10615778980407863 0.011580884867336669
000280 be 3b e6 4b 0e 59 b2 bf 51 04 84 df 15 13 92 bf
       -0.07167138436328366 -0.01765093018275749
000290 c2 b4 42 75 cb 9c b6 3f de 98 22 74 71 b1 60 3f
       0.08832999813849354 0.0020377365008982093
0002a0 fe 22 e6 36 a1 28 c5 bf d0 35 47 4e 66 37 b0 bf
       -0.1653024213849434 -0.0633453312977601
0002b0 5f 47 c6 0b 82 60 a2 bf c9 43 4d 8b 91 3a 8d bf
       -0.035892547547645696 -0.014271866859106102
0002c0 ef 0d d6 ad f4 5f ae 3f 47 80 4b 02 b5 18 ab 3f
       0.05932583448432271 0.052922874956266734
0002d0 18 74 23 01 7c 4c aa 3f 5a 9d e1 44 0a 17 8e 3f
       0.05136477960488878 0.014692383029070544
0002e0 83 c4 d0 7b b8 1c 93 bf 42 6b 34 ee 62 6c 97 bf
       -0.018664248044107722 -0.02287439898382649
0002f0 71 09 2a 19 3a fc 9b 3f 3d 12 40 84 41 3e ae 3f
       0.027329356943036346 0.05906872500785141
000300 d3 3b 8a 6b 73 23 b9 3f b3 78 45 41 e5 40 78 3f
       0.09819718718993835 0.005921264197551834
000310 20 f1 7c 3f 0c 18 93 3f 9e c2 0c 47 e7 0c b8 3f
       0.01864642274380046 0.09394689068427417
000320 22 ce 98 c7 fc 98 b1 bf 7d 75 f4 f2 35 97 aa 3f
       -0.06874065278025701 0.051934896380980235
000330 2d 2e e2 10 e1 83 a9 bf fb 4b 54 88 20 ce b9 3f
       -0.04983428317163106 0.10080149963714284
000340 c5 67 7e 0e 47 c3 b6 3f 5a 19 fe 61 49 a1 ba 3f
       0.08891719917156056 0.10402353899380526
000350 a2 b7 2a 32 b6 f5 b8 3f f0 26 2d 25 67 38 ab 3f
       0.09749926304604498 0.05316469506085564
000360 0e 1b 31 69 95 90 b0 bf 4d a4 18 40 86 05 a0 3f
       -0.06470617120895047 0.03129214794564259
000370 cd 68 24 9b 5f 01 ad 3f fd 7c 2f ec 3a ea 9e 3f
       0.05665110367609003 0.030190392175311043
000380 45 2f 82 a5 68 ab 7d bf 62 fc 0c 3a 8b 52 84 3f
       -0.007243546271762662 0.009923064908092086
000390 23 6d 5d f5 22 1a 99 3f 32 67 01 ec 90 9d b0 bf
       0.02451376555050645 -0.06490426790096818
0003a0 24 1a c8 bf e7 fd a5 3f 74 a3 db 5f 0d f8 a1 3f
       0.04295276847920018 0.035095613433276635
0003b0 16 8b ec 1a 96 0f 81 bf 83 d7 bc 47 a8 a0 a5 3f
       -0.008330509850173178 0.04224134326652431
0003c0 2c b6 ac da 1f d7 b2 3f 0c 03 18 a3 f1 75 b0 bf
       0.07359503830658615 -0.06429968101293698
0003d0 47 72 9f 15 b7 cf b7 3f 49 3e 95 65 82 74 b0 3f
       0.09301323202039057 0.0642777917867018
0003e0 36 f6 a3 f2 2f 4a b0 3f 6b b6 13 cf cd 25 b0 3f
       0.06363200830306756 0.06307684236136317
0003f0 c9 af 9f e8 5b 22 a7 3f 9a ae b4 0c 30 8a 05 3f
       0.04518401350637153 4.108389983978091e-05
000400 5b 65 50 78 cf be a7 bf e7 bb df 5e f6 97 a0 3f
       -0.046377643048070204 0.032409380990308816
000410 2c d8 14 10 11 37 81 3f 49 b0 63 81 2f 76 a6 bf
       0.008405812552705859 -0.04387043432674937
000420 71 f0 04 b5 6a 7d bc 3f e8 2c a9 62 bf 37 ab 3f
       0.11128870887199739 0.05315969542842841
000430 a1 a9 b0 b0 62 22 94 bf 50 93 cd b8 c6 7d b9 bf
       -0.019662420305544995 -0.09957544338028623
000440 02 f6 5d 38 62 23 ab bf bc 3c f8 34 95 a4 9f 3f
       -0.05300433099817427 0.030901271207821365
000450 a1 e1 02 1c fe b0 90 bf 9f 20 14 77 c1 54 b5 bf
       -0.01630017324416289 -0.08332451970284403
000460 d1 42 3a 45 e8 48 91 3f 6f 30 8f 0c b4 8f 84 bf
       0.016879681802097594 -0.010039717324524326
000470 ce f9 f8 62 35 13 9a bf 2b 92 73 23 f9 27 b4 bf
       -0.02546389977055146 -0.07873494258417028
000480 ad 0d 04 a2 8f ac 95 3f f4 33 7c cd 8f 5d b1 bf
       0.02116608072630093 -0.06783388869025925
000490 8c 32 0b 63 45 8b 8b bf fc c5 df 55 63 ca b2 3f
       -0.013449232182574343 0.07340069624458317
0004a0 69 03 c6 0e 32 26 b4 3f 82 b6 89 a5 0f 97 80 bf
       0.07870781765633485 -0.008100626220051813
0004b0 84 33 56 9d f4 ed c8 bf 8e e6 ac 15 97 74 a8 3f
       -0.19476182634789663 0.04776451243965339
0004c0 24 55 8f 1a 9a 14 ae bf 4c 87 45 a0 55 8f b6 bf
       -0.058750930540251184 -0.0881246105468822
0004d0 65 b4 fe 2c c8 f5 a7 3f e9 f6 a0 fa 19 f3 bd bf
       0.04679704236273422 -0.11699068421236415
0004e0 63 07 54 b2 2f 12 a7 3f 9c 01 5c bd dd 4e ad 3f
       0.045060625570853906 0.05724232613102062
0004f0 18 b9 7d b8 d7 46 a0 3f b6 37 f0 9b be 24 8b 3f
       0.03179048659409228 0.013253678449497968
000500 f0 2d 10 0e 4d 0f 7d bf 76 93 9b 7b 45 55 9f bf
       -0.007094670291745583 -0.030598722142616684
000510 5c 23 b7 39 a4 84 b1 bf 6f 9f c8 86 b4 2c c3 3f
       -0.068430198755903 0.14980179387316236
000520 58 40 67 54 60 cb 9c bf 9d d4 f2 16 3b e7 ad bf
       -0.02811956896931664 -0.05840477614530324
000530 29 cf 2b 9e 1f 28 78 bf 7c ca 1d 8b fa b3 a2 3f
       -0.005897639758348374 0.036529378396967765
000540 4e 11 c2 4b f4 86 b0 3f 4e 84 27 b5 df 88 8d bf
       0.06455923890650192 -0.014421222415821468
000550 09 d6 fb 82 bd a5 88 bf b2 5d 7d 45 63 f1 a9 bf
       -0.012034874496275287 -0.05066976760161469
000560 78 f1 cf 64 fe 95 90 bf 5c ab c6 c2 0a 05 ac 3f
       -0.016197180655568272 0.05472596767079693
000570 8b 24 57 5a 9f 18 70 bf 5c 61 d0 ce 26 c6 97 bf
       -0.003929731819377068 -0.02321682584087746
000580 e2 c5 2d f3 08 26 86 3f 28 4e 78 51 ed 4f a9 bf
       0.010814733430126237 -0.04943791980272422
000590 65 5c fc 8e a8 76 c1 bf 3b e5 1e 22 54 83 9f bf
       -0.13643366796233916 -0.030774416525422437
0005a0 bc 94 b4 66 22 32 c8 bf ef a1 35 f6 6a 20 91 bf
       -0.18902997984802095 -0.016725226666865763
0005b0 a1 03 5b 42 30 a7 9a 3f 00 5d e8 78 90 fa af 3f
       0.026028398561496528 0.062458529242741534
0005c0 31 df 4a ea a3 28 a1 3f 51 37 3c 18 83 cc 62 3f
       0.03351318583503227 0.0022947845881224134
0005d0 cb 18 d9 4e 3f 9b b0 bf d3 fa 6a 65 6c ca b1 bf
       -0.06486888575554699 -0.0694949863054533
0005e0 60 db 3e 58 91 33 8b bf 9c de 80 3a d8 02 ac bf
       -0.013281951432743078 -0.05470920290139
0005f0 af a7 25 d7 1b 28 af bf d2 02 14 e6 8d 22 67 3f
       -0.06085288049037218 0.0028240939578839464
000600 b1 19 4f 0a 7e 94 ab bf d0 a3 7d d9 5a 6a bd bf
       -0.053867281683369746 -0.11490409669717327
000610 07 78 7e 31 dc 47 8c bf 3d b2 59 ff 66 c0 ae bf
       -0.013808937321126548 -0.06006166331357974
000620 33 50 88 b2 76 c2 a0 3f f2 ed 2e 73 5f f3 b4 3f
       0.032733639997019635 0.08183857500164729
000630 3a 74 8f 27 32 9c a8 3f ae da a3 13 0c 44 9c 3f
       0.04806668026842727 0.02760332937119852
000640 de 97 24 6c 5c 1c b6 3f 71 52 64 82 b7 c2 af bf
       0.0863702549000602 -0.062032446543672466
000650 93 c7 b0 72 30 ab a2 bf 76 8b 51 83 4d 07 88 3f
       -0.036462320328055096 0.011732678957008007
000660 b6 67 29 e7 0a a0 99 bf f1 d6 d3 64 eb cd 82 3f
       -0.025024576529496044 0.009181822790633261
000670 3f 98 31 fe d1 7c 98 bf df 48 db 83 d4 fb 90 bf
       -0.023913651599649418 -0.016585655734908108
000680 01 ab 01 88 cb ac 9b bf d0 b4 ca ba a6 17 a8 3f
       -0.02702634828203099 0.04705544500516512
000690 2e 5d 61 70 b7 1c 88 bf 11 12 4f 89 9e 37 b5 bf
       -0.011773522488666002 -0.08287993290202446
0006a0 44 d7 8c 4b c6 8e 7f bf 9b ef 97 ea 23 b7 a3 bf
       -0.007704519834808302 -0.0385066245907801
0006b0 e0 7e 9c 87 bb 60 b7 3f ad e3 b6 cd 2a 77 97 3f
       0.09131977139304182 0.02291552429753423
0006c0 66 ed 82 b7 f2 92 b4 3f 4a c5 38 7a c9 c4 7c 3f
       0.08036725025424615 0.007023608227926312
0006d0 c6 7d 83 78 4a d2 ad 3f 41 9f dc 2d b1 c4 a8 3f
       0.05824501725305313 0.04837564167820441
0006e0 f9 2d c3 ab 07 12 a2 3f 72 f4 28 c2 f3 2a bc bf
       0.035293807713596644 -0.11003039827569852
0006f0 13 bb 6b f6 93 da 89 3f f6 b4 98 52 3a 08 b6 3f
       0.012623935659090734 0.08606304661289585
000700 45 ca 3b cb 49 e5 4b 3f ea 96 e2 43 74 f1 b2 3f
       0.0008513078996357856 0.07399679810859153
000710 b0 bc 36 10 6a 1b 9f bf 89 ad 1d b3 f9 de 93 bf
       -0.030378014793026764 -0.01940527110802529
000720 96 41 e9 2a 10 4c a6 3f c6 95 1d df ec e2 b6 bf
       0.04354906581704936 -0.08940010497243298
000730 13 78 18 62 5b 14 bb 3f 85 d3 92 dc b7 d4 91 bf
       0.1057793726435821 -0.0174130180718808
000740 dd 98 55 ce ed 43 b5 3f 6a ed c3 d9 f8 5c a3 bf
       0.08306776320896199 -0.03781869562404945
000750 16 dd bf 39 e1 57 a8 3f 73 7d 8a ee e7 ed 9a bf
       0.0475454695696788 -0.02629816430510119
000760 74 2e d3 7e 28 e9 b8 bf 32 0d 72 f5 7d 6b 9b bf
       -0.09730771156608303 -0.02677723703938035
000770 ee 24 9c 09 13 6a 7d bf b3 5d 31 2d e7 13 9f 3f
       -0.007181238522897744 0.030349361546851927
000780 57 7e 1e 63 1e 93 a9 bf 9a 33 24 5d da d3 a0 3f
       -0.04995055160474909 0.032866309995461765
000790 5c 48 99 9a 12 cb 90 bf 0a 33 05 99 53 05 c0 bf
       -0.016399660764655585 -0.12516255351729227
0007a0 a4 11 20 4a b6 e1 af 3f 21 a3 13 e0 34 74 b1 3f
       0.06226892142152288 0.06817942114470245
0007b0 40 b0 6d 72 86 23 97 bf 6b 41 c9 97 ce 43 88 bf
       -0.022596455320510467 -0.011848081595559909
0007c0 e7 91 b6 a1 a3 f7 a0 bf e1 ba 12 c6 6f a3 98 3f
       -0.03313933705365795 0.02406096121256496
0007d0 12 df b2 17 97 18 a3 bf 09 48 57 d7 b6 ee aa 3f
       -0.037296983378324225 0.05260249499009723
0007e0 85 be 70 3e e0 b6 82 bf 21 7a cb d6 2e 04 b5 bf
       -0.009137870698480608 -0.08209507698072872
0007f0 1d e1 cd ec 41 39 a6 3f ed 27 76 b5 e3 79 9e 3f
       0.04340559020687549 0.02976184649518381

b0 f8 [1, 100]
000000 79 7c 4f 99 63 a2 9f 3f be cc f9 94 01 a1 81 bf
       0.030892902595834635 -0.008607876166229263
000010 f4 79 ad 8c 7e f8 a8 3f e1 f5 b2 73 35 b3 b9 3f
       0.04877086131340383 0.10039075922664821
000020 27 66 8b f1 b8 e3 a4 3f ec 32 d8 fa fb ed a4 3f
       0.04079988430539699 0.0408781760889719
000030 7c 1c 9c e4 29 c2 b7 bf 06 6d 5d 6c 5b f6 9e bf
       -0.09280645209592991 -0.030236652840682353
000040 67 2e 55 cd cd 62 83 bf b8 f7 0a f6 d3 72 a3 3f
       -0.009465797261007226 0.037985442909742984
000050 97 e8 cb 53 81 bc b4 3f 57 22 23 bc 8b 0d ac bf
       0.0810013608533232 -0.0547908465537758
000060 4c 71 fc da d0 5e 88 3f ca 78 2a 5f 92 f1 91 bf
       0.011899596865582972 -0.01752308564993469
000070 18 c7 04 39 66 7b 6e bf fb c0 ed 44 8c ca a9 3f
       -0.0037209507501295806 0.050373443044806586
000080 c2 16 4c 1d 3a b7 b3 3f e3 ec ff 0b f0 fd 8e 3f
       0.07701457228912559 0.015132785192682302
000090 c4 70 21 df 33 6d c4 3f 99 6d cf 92 6c 34 93 bf
       0.15958259959268706 -0.018754669628703622
0000a0 14 40 64 55 36 34 9d 3f 85 67 bd 08 39 91 77 3f
       0.028519486390962426 0.0057537296196076325
0000b0 3e 43 10 ca 6a 0d 79 bf eb 26 25 a8 9c 77 6e 3f
       -0.00611631121229622 0.003719144792886255
0000c0 d7 73 bb 02 c0 b4 a0 3f 55 cd a7 85 33 9b 75 bf
       0.03262901337959761 -0.0052749645787913595
0000d0 ed bc c7 68 01 f6 8b bf c7 96 46 45 d2 f2 9a bf
       -0.01365281201375842 -0.026316915014510636
0000e0 8b ec e9 6b 85 3b a6 3f 44 96 ff 4c 85 16 88 3f
       0.043422860549037066 0.011761704838089256
0000f0 13 1c 9d 34 a9 f1 90 bf b9 da d7 ab 74 24 8d 3f
       -0.016546863399778355 0.014229690069425304
000100 b1 e0 84 9b 72 52 b0 3f b5 8c 81 c3 41 34 68 3f
       0.06375805184223073 0.0029546055266550194
000110 34 e2 8f a2 a1 8a b4 bf 4f 54 21 90 c3 7b b7 3f
       -0.08024034708785949 0.09173223751834424
000120 6a 16 67 97 a0 f4 25 3f 26 91 fe 31 87 8a 6d 3f
       0.00016750774712031023 0.0036060944111843294
000130 85 fe da 6f 9a 2a 9a 3f ea 51 2a e1 28 82 99 bf
       0.025553143574823984 -0.024910582297325158
000140 97 5a d2 05 9c c3 a3 3f b1 10 e8 53 5e d1 a2 bf
       0.0386017567736207 -0.03675360464333844
000150 ac 6c a9 40 cd 19 bb 3f c2 36 c6 14 89 b3 a9 bf
       0.10586245373399333 -0.050197871957704546
000160 d1 3b 34 9c 91 50 5d bf 71 04 2e 2d 78 4d b3 bf
       -0.001789228627618423 -0.07540083983441705
000170 db 74 9c 9f ff 3a b7 bf 1e 39 a0 94 32 dd 9d bf
       -0.0907439961124114 -0.02916411430492715
000180 4a e5 3f a1 27 78 b9 3f 6c 7d b4 ad 41 27 ad bf
       0.09948966681249263 -0.05694012875960194
000190 9a 19 32 ae 51 45 c4 bf 29 03 58 74 dc 06 ba 3f
       -0.15836544995927399 0.10166719284462701
0001a0 de 2a 1d 45 65 20 b3 3f 5d 2c d9 b3 55 0a a9 3f
       0.07471306741096437 0.04890697307981704
0001b0 17 9e e5 43 c7 e7 9b bf 2d 0f ce 1e 41 95 aa bf
       -0.027251351851559216 -0.05191997052227602
0001c0 cf 84 44 16 4e 12 87 3f ce ac 57 df 7a 57 96 bf
       0.011265382818751139 -0.0218180846040184
0001d0 0f ab c6 ed cf 82 a5 bf b2 ae 46 da 5b da 50 bf
       -0.04201364305057186 -0.001028623294682268
0001e0 93 07 90 77 85 12 b6 3f 07 42 15 d5 6a be c1 bf
       0.08622011345872087 -0.1386235752529645
0001f0 16 68 6f c9 86 bd 82 3f 7e 21 41 31 6b ca 9c bf
       0.009150555631936935 -0.028115916138888412
000200 00 4d 10 52 87 56 a1 bf aa 16 ed 81 74 22 a3 3f
       -0.033863285796678966 0.03737224660885137
000210 8c bb 37 d3 a7 c3 9c 3f ed c4 98 2f a7 cc b8 3f
       0.028090116755204828 0.09687275802641056
000220 4e 6d 4e 72 b0 9f a6 3f 5a 79 f8 f8 1a d3 a5 bf
       0.04418708224622013 -0.04262623109046855
000230 f5 fb 37 18 27 d0 95 3f 24 27 d5 19 79 2d a6 bf
       0.021301852086249757 -0.04331568184222892
000240 2c 9a ec cf ac 9e 84 3f 4b 09 09 b9 3b 59 a1 bf
       0.01006827363523851 -0.033883920991245896
000250 68 46 e7 e9 53 46 a5 bf 04 7b e0 01 a3 99 96 bf
       -0.04155218343988737 -0.022070452680163846
000260 e2 ce 87 01 34 a6 bd bf 69 3e 72 9c f6 da af bf
       -0.11581730878225074 -0.06221743259186214
000270 54 76 3c 82 64 c2 b3 bf 31 c0 88 ab 20 04 b5 bf
       -0.07718494586557628 -0.08209423244329696
000280 70 b0 3c 3a 63 f5 b5 3f 3b 50 16 dd 19 e6 93 bf
       0.08577556773951911 -0.019432453269090138
000290 84 93 f5 f0 8f 0e 74 3f 92 eb 06 f4 60 bd 90 3f
       0.004896700163361415 0.016347422498920468
0002a0 51 ee 52 0b 9f f2 0a 3f ad a1 58 5c 91 9f b6 bf
       5.139873375400713e-05 -0.08837231163545907
0002b0 ca 4f a4 fb c4 76 ac bf cb 8d 28 a4 7b 80 80 3f
       -0.055593639104841566 0.008057561824052059
0002c0 78 cc 9c d4 8b 79 94 3f f1 2f 57 84 45 05 8b 3f
       0.01999491200622258 0.013193648434842916
0002d0 94 2e a4 40 59 e9 a6 bf e3 13 1b b3 f0 a3 87 bf
       -0.04474905885771566 -0.011543159929155727
0002e0 0f db d8 e8 eb ae aa 3f 8e 40 41 e9 06 b2 a8 bf
       0.052115795301167826 -0.04823323819494006
0002f0 6d 75 58 0c 5b 18 99 3f 3b df dd 87 97 59 9f 3f
       0.02450697195864875 0.03061520354046297
000300 99 a7 4f ca b3 d2 92 3f 05 69 41 8a 7d f3 b3 3f
       0.01838189050969383 0.07793411851290351
000310 74 57 a9 d0 3c 43 a6 3f c5 58 d9 5d c6 85 97 bf
       0.0434817318643316 -0.022971248128975903

W1 f8 [100, 1]
000000 6b b0 5a a9 70 cc ad 3f 7f fe bb c8 f9 63 b7 3f
       0.058200379059912453 0.09136925841084496
000010 d9 9b af c3 6e 60 da bf b9 b7 59 c9 c3 23 d2 3f
       -0.41213578329046424 0.28343290961390327
000020 4e 2d db 65 0d 49 ac bf 8e 75 fd d8 e0 15 93 bf
       -0.05524484508858994 -0.018638146633170254
000030 e4 37 93 47 1a bf bd 3f c1 89 31 d3 75 c0 c5 bf
       0.11619724509657164 -0.16993592083151834
000040 bb 3e be c0 14 39 a5 bf da ce 72 65 ed 3c ad 3f
       -0.04145111897298422 0.05710546363243703
000050 07 dc 20 49 34 fd c2 bf d4 af 5d 2d 41 e6 b9 3f
       -0.14835218020172666 0.10116965634887204
000060 5d 53 b5 d4 3e 76 ca bf 4c 36 a1 47 78 86 97 bf
       -0.20673356424472447 -0.022973899242336324
000070 d3 4f f7 9a a2 5d c9 bf 53 a2 3f 6b b0 2b 68 3f
       -0.19817001883222804 0.002950520103685053
000080 12 de 1e d8 34 34 9a bf f1 e7 2b 6e 05 73 a4 bf
       -0.025589776698067786 -0.039940042208357236
000090 aa 74 f8 fe 7a 7f 9e bf 58 10 0d d6 eb 5f bc bf
       -0.029783174335638186 -0.11083864189009895
0000a0 d7 62 06 87 e2 ac ab bf 6c 1a 1f 24 0a 31 92 bf
       -0.054053381903207125 -0.017765196280175408
0000b0 e1 c5 ed 2a ba 8d aa 3f e9 8a c8 7e f8 18 c1 3f
       0.051862542858440504 0.1335745448169157
0000c0 c2 67 97 d4 84 59 a6 3f 24 17 c2 7b 92 a6 c7 bf
       0.043651724768735814 -0.18477088015441112
0000d0 0b c1 8d ce a2 43 d3 bf 04 88 05 41 6a 94 91 3f
       -0.30100317164671314 0.017167721003154682
0000e0 50 a3 60 66 9a 36 b1 bf 4c dc 17 6a 92 a2 b4 bf
       -0.06723942756128776 -0.08060565080801146
0000f0 a7 18 3f 4c fb 9d cd bf 30 e4 59 74 3a 6f ba bf
       -0.23138371680233158 -0.10325970974544485
000100 fa 5a 8d f8 9b fa cc 3f 52 74 bd 70 29 59 c3 3f
       0.22639798771225356 0.15115850453267626
000110 ab fd f4 1d 9a 0b c9 bf 6f 6d a7 1d e3 58 ab bf
       -0.19566656553977899 -0.05341253029811354
000120 c9 b5 0e f8 6b 3b bc bf 13 b8 80 89 17 91 a9 3f
       -0.11028170400705685 0.0499350886678799
000130 3a 3a 2c e7 30 1f a0 3f 9f de 34 39 da 5d d5 3f
       0.031487968653995016 0.3338532980592194
000140 d9 0b 69 4a ce 3d cc 3f 98 6c b7 0a ee af b7 bf
       0.2206361640292858 -0.09252822648652381
000150 2e 19 c5 1c 93 c2 bf bf 94 62 f5 b8 4e 65 9b 3f
       -0.12406272365942492 0.02675364498040496
000160 5e f4 9a 8f c0 3d 9b 3f f4 1a 80 f5 23 53 a6 3f
       0.026602753415080442 0.043603061407386706
000170 45 0b 5e ff 40 61 82 3f bf c1 28 70 a5 9d ab bf
       0.00897455958670935 -0.05393712038165032
000180 f5 30 58 4c 15 76 c5 3f 6b 21 05 6e e9 67 ca 3f
       0.16766611316450733 0.20629613754341433
000190 eb 6e c0 33 07 70 ce 3f 50 91 e1 da 80 46 a9 bf
       0.2377938273137866 -0.049366022795569564
0001a0 97 ea 13 01 37 4b b1 3f 81 42 d1 21 15 9b c2 bf
       0.06755393768609462 -0.14535774375191937
0001b0 08 c6 32 04 08 e2 c1 3f 71 e5 ef 4f 63 3f c2 3f
       0.13971042828556812 0.14255944636515097
0001c0 58 c9 ae 48 3a 9b 94 3f 4a fc 0c 48 44 2b cc bf
       0.020123396574214553 -0.22007039564229763
0001d0 66 51 29 a2 f0 c9 d0 bf a8 55 66 58 3b 7f b4 bf
       -0.26232543788980534 -0.08006640346714866
0001e0 4c 99 36 e1 55 07 c5 3f 23 30 35 cd 58 b8 b6 bf
       0.16428636070959113 -0.08875041017489642
0001f0 82 b3 3f 5f 67 30 be 3f db 8c de 3b 4c 0e d2 3f
       0.11792608333025892 0.2821226677571766
000200 c2 46 2f bd fd 6d d0 bf aa f7 ca 39 fc 89 a8 bf
       -0.25671332812371983 -0.0479277439639952
000210 78 1c d5 58 f5 92 d0 3f 7f a1 18 22 a8 17 91 3f
       0.2589696280960605 0.016691805916850818
000220 a5 4c fc 9e 8d 53 c1 3f a6 4d 1d 3f 63 34 c8 3f
       0.13536234152761498 0.18909874517212905
000230 e5 5e 03 b8 1d 5c b4 3f 88 f7 48 24 96 3f b7 3f
       0.07953057997235254 0.09081400285592
000240 21 ae fa e3 50 7f a7 3f 38 fc c3 01 9f d3 bf 3f
       0.04589321883153397 0.12432283204178496
000250 a0 cf 7d 06 56 d3 d0 bf 9b 67 8a 80 df f2 c4 3f
       -0.26289892801218606 0.1636618974342213
000260 a3 f3 69 f9 be df d2 3f cb d1 a3 12 f8 9e d5 3f
       0.29490637165855044 0.3378276998548954
000270 df 2e 45 7f 71 f0 a6 3f 6b 05 30 6c ba 67 a4 bf
       0.04480318716613651 -0.039853883463375116
000280 f1 cb 04 a1 2c 2a a1 3f 04 f5 65 3a 54 74 9c bf
       0.033524889617545635 -0.027787509979579475
000290 83 6b 71 74 69 90 a8 3f 7c 39 63 02 4a b4 8f 3f
       0.04797677561210547 0.015480592916358608
0002a0 34 ef 71 45 bc c4 b8 3f 68 1b 5a fe a7 d4 a5 bf
       0.09675194449840491 -0.042638063238931434
0002b0 15 62 2e f0 b4 60 b7 3f 8d e9 ac 1b f7 46 ac 3f
       0.09131937850759926 0.055228922012662364
0002c0 70 ad 6f 00 cf 9f 96 3f 15 bf 52 8c eb 02 93 3f
       0.022093996430994023 0.01856582683529869
0002d0 1b 80 a3 5d c0 1d c7 bf 9b 32 33 0c e4 73 90 bf
       -0.180595441553124 -0.016067088360432007
0002e0 b4 a4 e1 26 8a 2b 96 bf 97 d8 ca a4 52 66 a2 bf
       -0.021650465605863103 -0.035936911216979776
0002f0 9e 38 6a f2 fa d6 c0 bf ad 98 8f 64 83 cc b9 bf
       -0.1315606769243844 -0.1007768745908801
000300 3d af 81 6e 9d 4e d7 bf 09 58 a4 78 bf 79 9d 3f
       -0.3641732768216917 0.028784744013215433
000310 e6 a9 b7 9b 7a 27 b4 3f 5a 27 9d a8 3e 41 b8 bf
       0.078727400795891 -0.09474555603551718

b1 f8 [1, 1]
000000 eb 82 6d 89 e1 36 c1 bf
       -0.13448733530369536
