Prediction and Control with Function Approximation/Week 2/Notebook: Semi-gradient TD with a Neural Network/asserts/get_value_weights.npz (npz, 1454 bytes, 4 tensors)

W0 f8 [5, 10]
000000 69 78 cd 29 d8 d9 f1 3f 41 c4 e0 55 7d 32 d0 3f
       1.1156846650042331 0.2530816401150027
000010 d6 84 08 65 ea ce e3 3f 22 9f 38 61 1e ad f6 3f
       0.6190082524591627 1.417265300531604
000020 f0 47 29 cc fa e5 f2 3f 19 e2 0d c7 59 c7 e3 bf
       1.1811473822640401 -0.6180848014619783
000030 6d 9a 45 e3 7a 3a e3 3f 99 f9 bf 95 8b 81 b8 bf
       0.6008886755851798 -0.09572670370105242
000040 52 83 d3 09 47 b6 b0 bf 51 aa 3d 11 af 9e d0 3f
       -0.06528133382699977 0.2596852939956636
000050 5b 21 a1 ba 67 52 b7 3f fd a7 e2 7e b3 6e ed 3f
       0.09110115343458373 0.9197633245687481
000060 bb 76 dd f7 fc cd de 3f 4e f5 75 81 42 b3 b3 3f
       0.4813225193555401 0.07695403729117808
000070 5f 11 e6 c6 60 f7 d1 3f 37 80 5c f6 2a 03 cb 3f
       0.2807237570161955 0.21103417424547086
000080 62 07 9b d2 ef 3c ee 3f 09 16 20 12 c3 9b c0 bf
       0.9449385751142751 -0.1297534788611048
000090 fc 9b 5f 20 1c 58 c9 3f 25 99 71 7b 22 49 e1 bf
       0.19800139981018094 -0.5401775752077681
0000a0 9e ab c6 e4 9d d5 f9 bf 18 d7 0f 16 e5 74 da 3f
       -1.6146525322498984 0.41338469652633725
0000b0 7d 9a 3d 9b b5 7e e1 3f a0 ba 21 24 6d 0a de bf
       0.5467174560588571 -0.46938637283794016
0000c0 bb 3a 02 a2 e2 f7 f6 3f a1 aa 20 be 2d 6f ed bf
       1.4355188682999784 -0.9198216164998777
0000d0 d5 ee f8 c8 81 a2 9d 3f 44 b8 46 75 82 4e be bf
       0.028940227404958236 -0.11838546145620038
0000e0 b1 03 9c f6 71 05 ef 3f dd 13 55 ea db bc ed 3f
       0.969414693507238 0.9293040825656324
0000f0 32 10 81 d1 5a 16 b9 3f 42 7f 52 93 27 9d ce 3f
       0.09799735655639166 0.23917097753018807
000100 f7 4e f8 67 af f7 e1 bf 3b 5c b0 07 54 0b f4 bf
       -0.5614850073493177 -1.25276568416099
000110 29 b1 0b 9c 3c 2a cc bf 20 72 22 60 72 50 b9 3f
       -0.22003896350305155 0.09888377043757446
000120 28 d0 0c ab 3a e6 e8 3f a4 00 67 fc 9e 55 e8 3f
       0.778104147035724 0.7604517869695155
000130 0b 9a d5 09 14 5b cf bf 06 ed ef 85 03 79 c8 bf
       -0.24496698837465689 -0.19119304695036748
000140 17 88 db de a1 38 e5 bf 56 06 ad 6f 38 bd ec bf
       -0.6631631233869965 -0.8980981999558917
000150 67 14 ae 53 28 44 f1 bf d7 17 61 b9 8e bd f3 3f
       -1.079140021204944 1.2337786904695258
000160 17 dc 93 d4 17 a1 d4 bf e2 1e c0 6a 64 bb d1 bf
       -0.3223323417618657 -0.27706251549578387
000170 23 3f e9 de d3 5a e9 bf b8 cc ee 09 79 78 df 3f
       -0.7923373559696966 0.49172807664872265
000180 06 86 b2 0c dd 54 f0 bf 53 ee 38 dd e4 38 c1 bf
       -1.0207186218252686 -0.13454876710771888

b0 f8 [1, 10]
000000 2a 97 01 e5 7a 1f e2 bf 7e ec 26 d8 48 52 cf 3f
       -0.5663427803781123 0.2446986251287377
000010 9c bd e7 49 0a ad d4 bf 8f e8 94 da f1 e4 e7 bf
       -0.3230615350466566 -0.7466973561452209
000020 34 2c 28 cf 74 40 92 bf e5 67 ae 90 70 56 d1 3f
       -0.017824006217818503 0.27090086106329486
000030 85 b3 d2 9d 17 8a a5 3f e1 4d 92 eb 84 7c c8 3f
       0.04206918527174878 0.19130002501024904
000040 02 90 55 0c f1 ac d9 bf d9 fb 3c cb 8e 5d cd bf
       -0.40118051723970904 -0.22941765712491138

W1 f8 [10, 1]
000000 2d dc 2a 88 37 3f d3 bf be d4 9a 85 ff 94 c4 bf
       -0.30073345468139473 -0.16079706214592265
000010 88 fb 19 f4 0a 46 d7 bf d3 44 69 19 5d b4 e8 bf
       -0.36365007246052317 -0.7720170494377733
000020 3f 60 10 2f 1c 50 b4 3f 81 ec d4 ff d0 ff c6 bf
       0.07934738301298781 -0.17968189708503604
000030 26 5a d5 16 5a 54 e7 bf 21 c7 c6 6b bf 7d ca 3f
       -0.7290468641247727 0.20696251642726174
000040 e2 eb 56 b3 e8 f7 d9 bf 98 90 8e 07 c9 c9 97 3f
       -0.4057561637270607 0.0232306872236597

b1 f8 [1, 1]
000000 0e 70 c3 74 27 de d4 3f
       0.3260592117565019
