A Complete Reinforcement Learning System (Capstone)/Week 5/Notebook: Implement Your Agent/asserts/update_weights.npz (npz, 1054 bytes, 4 tensors)

W0 f8 [5, 2]
0	0xbff07f7d3875b77c	-1.0311252789938115
1	0x4000b08183afee45	2.0861845291199494
2	0xbfc3e16701dca52e	-0.15531623450196136
3	0x3f98b3408ba65060	0.024121292613543566
4	0xbfe887b2cfcb7028	-0.7665647562494131
5	0xbfe4ee0d193dd363	-0.6540589802740268
6	0xbfed9f4d79b1f2c8	-0.9256961228234895
7	0xbfcfe495a667d9f4	-0.24916334748532132
8	0xbfed7f6537ffab95	-0.9218011945462076
9	0x3fe7158a9e11394a	0.7213795745135851

b0 f8 [1, 2]
0	0xbfdc6945baec354e	-0.4439253163735274
1	0xbfe644b083ad5a1c	-0.69588494985766

W1 f8 [2, 3]
0	0x3fc1df5c477558ff	0.1396289204519192
1	0x3fdf3ecdd6931cc4	0.48820825533443846
2	0x3fda707bebcd9141	0.41311548259388436
3	0x3fd954e02ed0fe0c	0.395805402487867
4	0xbfca8b739166b054	-0.2073807201353498
5	0xbfde30c19b0b7389	-0.4717258466824253

b1 f8 [1, 3]
0	0xbfdf4ea60ba93396	-0.4891753305317307
1	0xbfe3d1a4acfc16ea	-0.6193412188156036
2	0xbff7cdab13cf126a	-1.4877119802269143
